data.pth (torch, 4951 bytes, 6 tensors)

l1.weight f4 [8, 52]
0	0xbdc1eb0c	-0.0946866
1	0x3d83cd99	0.06435699
2	0xbeee7e97	-0.46580955
3	0x3ec31f39	0.38109758
4	0x3ec48410	0.38382006
5	0xbeeabd5b	-0.45847592
6	0xbe0da882	-0.13833812
7	0xbe73b50c	-0.23799533
8	0xbf1ad679	-0.6048351
9	0xbed54b6b	-0.41659102
10	0x3e5deea4	0.21673065
11	0x3eb444a7	0.35208628
12	0xbe394e57	-0.1809629
13	0xbc5c4b41	-0.013445676
14	0x3ddac1e6	0.106815144
15	0x3e90dc46	0.28293055
16	0xbee86f3d	-0.45397368
17	0xbdc4070e	-0.09571658
18	0x3f3d2d2a	0.7389704
19	0xbe85803b	-0.26074395
20	0x3f0246e6	0.5088943
21	0x3f357f31	0.70897204
22	0x3f1fd5cd	0.6243561
23	0xbdca5241	-0.0987897
24	0x3e8f40fb	0.27979264
25	0x3ddeeca1	0.10884977
26	0x3e90178f	0.28142974
27	0x3ca9d444	0.020731099
28	0xbe6d7edd	-0.23192926
29	0xbb9c8e6a	-0.0047777193
30	0xbf095d9d	-0.5365847
31	0x3eb4ea16	0.35334843
32	0x3e6a7d78	0.22899425
33	0xbed556ba	-0.4166773
34	0xbcc3a47e	-0.023882147
35	0xbeeac3fc	-0.4585265
36	0x3f0e46d6	0.5557684
37	0xbeaa35be	-0.33244127
38	0x3f81e295	1.0147272
39	0x3eafbfa3	0.34325895
40	0xbea14ec5	-0.3150541
41	0x3eb698de	0.35663503
42	0xbede9d3a	-0.4347933
43	0xbdd2c105	-0.10290722
44	0x3ea0ecf3	0.31430778
45	0xbed91207	-0.42396566
46	0xbbf4d4d2	-0.007471659
47	0x3eb46860	0.35235882
48	0xbdd0765b	-0.101788245
49	0xbe812608	-0.25224328
50	0x3e44723f	0.19184206
51	0xbe683065	-0.22674711
52	0x3d99ab6f	0.075034015
53	0xbd2f29cf	-0.04276448
54	0xbea575ec	-0.3231653
55	0xbdba0957	-0.09083813
56	0xbe9ea5f6	-0.30985993
57	0x3f7a1811	0.9769297
58	0xbe0c294d	-0.1368763
59	0xbe4bf4a5	-0.19917543
60	0xbe160dea	-0.14653745
61	0xbe0858fb	-0.13315193
62	0xbdcf096c	-0.10109219
63	0x3e216ee6	0.1576496
64	0xbe8c9da1	-0.2746401
65	0xbe6b8421	-0.22999622
66	0xbe4721bb	-0.19446461
67	0xbe884ec4	-0.26622593
68	0x3f51143e	0.8167151
69	0xbdc443d5	-0.095832504
70	0xbf0056eb	-0.50132626
71	0x3e3fefca	0.18743816
72	0xbf03b6f2	-0.5145103
73	0xbeef984a	-0.46795875
74	0xbeda93a0	-0.42690754
75	0xbdac9613	-0.08427062
76	0xbd1be4e9	-0.038060103
77	0xbe7d4d00	-0.24736404
78	0x3e888277	0.26662037
79	0xbe6d5bac	-0.23179501
80	0x3f08d6c5	0.5345271
81	0x3e2be191	0.16785266
82	0xbe8dad39	-0.2767122
83	0xbdd6e434	-0.10492745
84	0x3e3bd551	0.18343093
85	0xbe1a9608	-0.15096295
86	0xbde2eb03	-0.11079981
87	0xbead9736	-0.33904427
88	0x3ef61994	0.4806639
89	0x3f097dd0	0.537076
90	0x3f40c19b	0.7529542
91	0xbe0fe74b	-0.14053075
92	0xbe7072d4	-0.23481303
93	0xbdc9def4	-0.09856978
94	0x3ed7a670	0.4211917
95	0x3d05583d	0.032554854
96	0xbdb4ce2f	-0.08828389
97	0xbeb677af	-0.35638186
98	0x3c46dfa2	0.012138279
99	0x3ebd2e29	0.3694928
100	0x3cf60904	0.030033596
101	0xbe6b870e	-0.23000738
102	0x3e874048	0.2641623
103	0xbe009024	-0.12554985
104	0xbcfbdbbb	-0.030744424
105	0x3e9a8ef3	0.30187187
106	0xbef6a27a	-0.48170835
107	0x3f179a82	0.59220135
108	0x3ee352f4	0.44399226
109	0xbf244aed	-0.6417683
110	0x3bf4ee4b	0.007474696
111	0xbe801d2b	-0.25022253
112	0xbf1cf072	-0.6130439
113	0xbeb8e77f	-0.36114118
114	0x3f2a6db9	0.66573673
115	0x3ea7148b	0.3263286
116	0xbdb629b7	-0.08894675
117	0x3df27681	0.11839009
118	0x3e77c9ee	0.24198124
119	0x3f2e4dcb	0.6808745
120	0xbf244dc9	-0.6418119
121	0xbe2919fc	-0.16513819
122	0x3f4aed3b	0.79268235
123	0xbe0999e3	-0.1343761
124	0x3f136e4f	0.5759019
125	0x3f3726e8	0.7154374
126	0x3f05dfad	0.5229443
127	0xbe42f96a	-0.19040456
128	0x3ed899e5	0.42304912
129	0x3eded679	0.43523005
130	0x3e447a9e	0.191874
131	0x3e809307	0.25112173
132	0xbeae6f8e	-0.34069484
133	0x3d4b71ca	0.049669065
134	0xbeda8e75	-0.4268681
135	0x3eb411eb	0.3516992
136	0x3ea14d70	0.31504393
137	0xbf11ce38	-0.5695529
138	0xbe18f886	-0.14938554
139	0xbf245021	-0.64184767
140	0x3ecfd612	0.4059301
141	0xbeb809c7	-0.3594496
142	0x3f36d471	0.7141791
143	0x3e8f62d8	0.280051
144	0xbe800ef0	-0.25011396
145	0x3eb6fce7	0.35739824
146	0xbedede99	-0.43529204
147	0xbd85752b	-0.06516489
148	0x3f0a4a0e	0.5401925
149	0x3e272a38	0.16324699
150	0x3da4e2b0	0.0805105
151	0x3e983a71	0.29732087
152	0xbe13ddae	-0.14440033
153	0x3d881f50	0.066465974
154	0x3e0bd5ee	0.13655826
155	0xbda2af09	-0.079435416
156	0x3f0844de	0.53230083
157	0xbdcc3b92	-0.099723
158	0xbea3602d	-0.31909314
159	0x3ec8f4f7	0.39249393
160	0x3ed062a3	0.40700254
161	0xbf079882	-0.52967083
162	0xbe1200c4	-0.14258105
163	0xbd097695	-0.033560354
164	0xbed049dd	-0.40681353
165	0xbe6e6175	-0.23279364
166	0x3f27b5cc	0.65511775
167	0xbddb9c08	-0.1072312
168	0xbe6a1774	-0.22860509
169	0xbeb0e3de	-0.3454885
170	0xbe2dd07f	-0.16974066
171	0x3f1a6115	0.60304385
172	0xbeffd314	-0.49965727
173	0xbd7a9c7f	-0.061184403
174	0x3f66e3f1	0.9019156
175	0x3e83a90a	0.25714904
176	0x3f80fd5d	1.007732
177	0x3f44200e	0.7661141
178	0x3e9ed9fc	0.31025684
179	0xbcbdf8d0	-0.023189932
180	0x3edbfd9d	0.4296693
181	0xbee7cc0b	-0.4527286
182	0x3eb0f020	0.345582
183	0xbedc04a6	-0.42972296
184	0xbec5732c	-0.38564432
185	0x3e92e155	0.2868754
186	0xbe10db74	-0.14146215
187	0xbe5271f7	-0.20551287
188	0x3eb617b6	0.35564965
189	0xbea8b4e0	-0.32950497
190	0x3d1acb18	0.03779134
191	0xbf01d4a4	-0.5071509
192	0x3e817146	0.25281733
193	0xbe8285d9	-0.25492743
194	0x3eac2994	0.33625472
195	0xbe6f9c1f	-0.23399399
196	0x3d147683	0.036245834
197	0xbe6f9140	-0.23395252
198	0x3f641113	0.89088553
199	0x3ef95fa2	0.48705775
200	0x3ea4330e	0.32070202
201	0xbefee23f	-0.49781987
202	0xbd25ff2f	-0.040526565
203	0x3ed456a6	0.41472358
204	0xbe5f493e	-0.21805283
205	0xbeb0cffd	-0.34533682
206	0x3eb5252c	0.35379922
207	0xbda7b872	-0.08189477
208	0xbea360ac	-0.31909692
209	0x3e77448a	0.2414724
210	0x3f10d1b0	0.5656996
211	0xbe0b866d	-0.13625498
212	0x3eabf40e	0.33584636
213	0x3f3ca6ea	0.7369219
214	0x3ec37654	0.38176215
215	0x3efd689a	0.49493867
216	0x3f2e75e0	0.6814861
217	0x3f02b156	0.51051843
218	0xbe7c5e99	-0.24645461
219	0x3f0691aa	0.52566016
220	0xbdf6b151	-0.12045539
221	0xbd4b80ec	-0.049683496
222	0x3eb1a448	0.3469565
223	0xbe90a8f9	-0.28253916
224	0x3f5333af	0.8250074
225	0x3eeec261	0.46632674
226	0xbf1ee859	-0.62073284
227	0xbe863670	-0.26213408
228	0xbf425743	-0.759144
229	0xbf3b5d6a	-0.73189414
230	0xbf30992a	-0.6898371
231	0x3f0b6cb6	0.54462755
232	0xbe1aa7c0	-0.15103054
233	0x3e61cc04	0.22050482
234	0x3d8d11cb	0.06888159
235	0x3d31d86e	0.043419294
236	0x3f1169db	0.5680215
237	0x3bea86c0	0.0071571767
238	0x3ed413a4	0.41421235
239	0x3ef96dd4	0.48716605
240	0x3c5f40f0	0.013626322
241	0x3eeef1d9	0.4666889
242	0x3f0b47ec	0.5440662
243	0x3f86dd10	1.0536213
244	0xbda82061	-0.08209301
245	0x3f2c09dc	0.67202544
246	0xbe85bf3b	-0.2612246
247	0x3e80ae65	0.25133052
248	0x3f0ff93e	0.5623969
249	0x3e94e9f3	0.2908474
250	0xbf73b5bf	-0.951992
251	0xbebdc99c	-0.37067878
252	0xbd912f7a	-0.070891336
253	0xbe3eee7a	-0.18645659
254	0xbe2b8095	-0.16748269
255	0xbcb05ba2	-0.021528069

l1.bias f4 [8]
0	0x3eeabd81	0.45847705
1	0x3f1619af	0.5863294
2	0x3f244dc9	0.6418119
3	0x3f57dc8c	0.843209
4	0x3f73ad97	0.9518675
5	0x3f2fb212	0.6863109
6	0x3f67c491	0.9053431
7	0x3f322c82	0.69599164

l2.weight f4 [8, 8]
0	0x3f44dabe	0.76896274
1	0x3ea24412	0.3169256
2	0x3eeeab3b	0.46615013
3	0x3e2ac761	0.1667762
4	0x3f8ebbe3	1.1151088
5	0xbf7908d5	-0.972791
6	0x3f022484	0.5083697
7	0x3ef72524	0.48270524
8	0x3f637117	0.88844436
9	0x3f53458f	0.82528013
10	0x3f3e30e4	0.7429335
11	0xbed13b6e	-0.40865654
12	0x3efd53a0	0.49477863
13	0xbf900486	-1.125138
14	0xbf23bf32	-0.63963616
15	0x3ecf7da3	0.4052554
16	0xbe47f73d	-0.19527908
17	0xbf91473f	-1.1349868
18	0x3f312a87	0.69205517
19	0x3eaa744f	0.3329186
20	0x3eb23bde	0.348113
21	0x3f93db90	1.155138
22	0x3f960320	1.1719704
23	0xbf70aff9	-0.9401851
24	0x3f849293	1.0357231
25	0xbdea749a	-0.11448021
26	0x3facc37a	1.3497155
27	0xbc2813c4	-0.010258619
28	0x3ee3c5c0	0.4448681
29	0xbf3ad554	-0.7298176
30	0x3f06d18c	0.52663493
31	0xbf1bcfca	-0.60863936
32	0xbddb73f4	-0.10715476
33	0xbf0ad410	-0.5422983
34	0x3f04ca8a	0.5187155
35	0x3efcc52a	0.49369174
36	0x3f284850	0.6573534
37	0xbf4e99fa	-0.807037
38	0x3f9c184c	1.2194915
39	0xbf337337	-0.7009768
40	0xbf6a8447	-0.9160809
41	0x3f8d769f	1.1051825
42	0xbfb682b4	-1.4258637
43	0x3eebcfd0	0.46056986
44	0x3f94d39c	1.1627078
45	0x3f07d614	0.5306103
46	0x3f633926	0.88759077
47	0x3fb1f3c0	1.3902512
48	0xbe85468b	-0.26030383
49	0x3dc96130	0.0983299
50	0xbe969664	-0.29411614
51	0xbeb4a8b2	-0.35284954
52	0xbe93dfdc	-0.2888173
53	0xbdb98248	-0.09058052
54	0xbdf8cd42	-0.12148525
55	0xbe1264f8	-0.14296329
56	0x3f7a6e56	0.9782461
57	0x3f0653a4	0.52471375
58	0x3f2c61d3	0.6733677
59	0x3fabd566	1.3424499
60	0xbf8edbaa	-1.1160786
61	0x3e8c6453	0.2742029
62	0x3f7727cd	0.96545106
63	0x3f03aac2	0.5143243

l2.bias f4 [8]
0	0xbdd1c4da	-0.102426246
1	0x3e25dfcc	0.16198653
2	0x3facdf61	1.350567
3	0x3eff9370	0.49917173
4	0xbe83b458	-0.2572353
5	0xbd9fc324	-0.07800892
6	0xbe2f25e8	-0.17104304
7	0xbf06cb1d	-0.52653676

l3.weight f4 [7, 8]
0	0xbf7ed071	-0.99536806
1	0xbf9ed59f	-1.2408942
2	0x3fcabdc3	1.5839161
3	0x3eb5292b	0.3538297
4	0xbff05d29	-1.877843
5	0xbf54485e	-0.82922924
6	0x3c4d0aa0	0.01251474
7	0xbf88fdce	-1.0702455
8	0x3e3b7a98	0.18308485
9	0x3f8051e3	1.002499
10	0xbd948baa	-0.07253201
11	0x3f03be90	0.5146265
12	0x3c410dfb	0.011783118
13	0xbfaf3b75	-1.369002
14	0x3ea9d781	0.3317223
15	0xbfa40e16	-1.2816799
16	0x3ee189c8	0.4405043
17	0x3dc45210	0.09585965
18	0xbf942b2e	-1.1575677
19	0xbf6dd605	-0.9290469
20	0xbfc53477	-1.5406636
21	0x3f41bb5f	0.7567653
22	0xbdd4215c	-0.10357925
23	0xbed881ab	-0.4228643
24	0x3dd84107	0.10559278
25	0xbf8eb40b	-1.1148695
26	0x3e854c29	0.26034668
27	0xbd19f245	-0.03758456
28	0x3e9f20e9	0.31079796
29	0xbf918de5	-1.1371428
30	0xbe930686	-0.28715914
31	0x3f130658	0.57431555
32	0x3ef72d6c	0.48276842
33	0x3f0b88eb	0.54505795
34	0xbf711060	-0.9416561
35	0x3e22af15	0.15887101
36	0xbfaf887e	-1.3713529
37	0xbee635f6	-0.44963044
38	0xbe6c4d1b	-0.23076288
39	0x3f02a868	0.5103822
40	0x3e417605	0.18892677
41	0xbfc13c91	-1.5096608
42	0x3e968e1d	0.294053
43	0xbe5691bc	-0.20954031
44	0x3f004d3e	0.5011786
45	0x3db64e24	0.08901623
46	0xbea5af0c	-0.32360113
47	0xbf80cb1a	-1.0061982
48	0xbf4024d8	-0.7505622
49	0xbfae198a	-1.3601544
50	0xbd03530c	-0.03206162
51	0xbf4fdb4a	-0.81193984
52	0xbf87461a	-1.0568268
53	0x3ecc0fdd	0.39855853
54	0x3e6a6c3a	0.22892848
55	0x3f58dcff	0.84712213

l3.bias f4 [7]
0	0x3f94c4ae	1.1622522
1	0xbd758ac7	-0.0599468
2	0x3d1f7414	0.03892906
3	0xbe824cda	-0.25449258
4	0xbec1d934	-0.37861025
5	0xbef32a4d	-0.4749321
6	0xbee5bc3d	-0.44870177
